pretrained_model1/policy_postprocessor_step_0_unnormalizer_processor.safetensors (safetensors, 7544 bytes, 36 tensors)

action.max f4 [6]
00000000: 87fc fc41 a7d3 3942 0000 c842 c633 8a42
00000010: 8661 9840 4728 a542
31.623304 46.45669 100.0 69.10112 4.7619047 82.57867

action.mean f4 [6]
00000000: 951f 2040 5e52 9bc1 8de8 3342 eb75 3441
00000010: 960e 04c2 c678 d241
2.5019276 -19.415218 44.9771 11.278789 -33.014244 26.308971

action.min f4 [6]
00000000: 1c7f cdc1 4120 c0c2 cb93 8fc2 ef75 83c2
00000010: d443 6dc2 fe2c 1d3f
-25.687065 -96.062996 -71.78866 -65.73034 -59.31624 0.6139678

action.q01 f4 [6]
00000000: e4ab 20c1 41f1 bec2 b05a 96c1 6bfd 26c2
00000010: 24e7 56c2 ae5b fc3f
-10.0419655 -95.4712 -18.794281 -41.74748 -53.725723 1.9715478

action.q10 f4 [6]
00000000: 5370 0bc1 1914 bec2 81fc 36c1 5bd0 25c2
00000010: 40d7 54c2 a7cd 0240
-8.714923 -95.03925 -11.436646 -41.453472 -53.210205 2.043802

action.q50 f4 [6]
00000000: cb89 0dc0 60f9 5040 5a02 2642 45a8 a941
00000010: 5f13 3ac2 807e a141
-2.2115352 3.2652206 41.502296 21.207163 -46.518917 20.186768

action.q90 f4 [6]
00000000: 101f c441 a36b b441 dbe8 c242 fd33 6742
00000010: 7ac7 06c0 25b7 6842
24.515167 22.552557 97.454796 57.80077 -2.105925 58.178852

action.q99 f4 [6]
00000000: 8a81 d541 e17a e441 e45e c442 de18 7042
00000010: 431a 9cbf 81ec 8342
26.688251 28.56 98.18533 60.024284 -1.2195514 65.96192

action.std f4 [6]
00000000: 0538 4741 4581 3a42 217f 2242 2266 1042
00000010: e227 b441 7f2f be41
12.451177 46.62624 40.62415 36.09974 22.519474 23.773191

observation.images.front.max f4 [3, 1, 1]
00000000: 0000 803f 0000 803f 0000 803f
1.0 1.0 1.0

observation.images.front.mean f4 [3, 1, 1]
00000000: ec51 f83e d578 e93e 3bdf cf3e
0.485 0.456 0.406

observation.images.front.min f4 [3, 1, 1]
00000000: 0000 0000 0000 0000 0000 0000
0.0 0.0 0.0

observation.images.front.q01 f4 [3, 1, 1]
00000000: 138f 813d e9d7 cc3c 5dd1 853b
0.06326117 0.025005298 0.004083796

observation.images.front.q10 f4 [3, 1, 1]
00000000: 3f7e 233e ded5 2c3e 7c74 083e
0.15966128 0.16878459 0.13325685

observation.images.front.q50 f4 [3, 1, 1]
00000000: 3ad5 8c3e d7ad e23e e9ba cf3e
0.2750643 0.44273254 0.4057229

observation.images.front.q90 f4 [3, 1, 1]
00000000: 3769 5c3f 2fbb 1d3f f5e1 133f
0.86098045 0.61613744 0.5776666

observation.images.front.q99 f4 [3, 1, 1]
00000000: 52fc 7f3f 5cbe 7e3f faf1 793f
0.99994385 0.99509215 0.9763485

observation.images.front.std f4 [3, 1, 1]
00000000: fa7e 6a3e 4260 653e 6666 663e
0.229 0.224 0.225

observation.images.side.max f4 [3, 1, 1]
00000000: 0000 803f 0000 803f 0000 803f
1.0 1.0 1.0

observation.images.side.mean f4 [3, 1, 1]
00000000: ec51 f83e d578 e93e 3bdf cf3e
0.485 0.456 0.406

observation.images.side.min f4 [3, 1, 1]
00000000: 0000 0000 0000 0000 0000 0000
0.0 0.0 0.0

observation.images.side.q01 f4 [3, 1, 1]
00000000: c9f0 1e3d 334a 8f3c 3585 353b
0.03880385 0.017491436 0.0027697806

observation.images.side.q10 f4 [3, 1, 1]
00000000: 4058 bf3d 1721 213e 6322 073e
0.09343004 0.15735279 0.13196711

observation.images.side.q50 f4 [3, 1, 1]
00000000: 9e50 5e3e 164f f13e 1964 ea3e
0.2171044 0.4713065 0.45779493

observation.images.side.q90 f4 [3, 1, 1]
00000000: 764d 5d3f 12d8 2e3f 1d73 283f
0.8644632 0.6829845 0.6580065

observation.images.side.q99 f4 [3, 1, 1]
00000000: dcfb 7f3f 03a8 7f3f 6575 7d3f
0.9999368 0.9986574 0.99007255

observation.images.side.std f4 [3, 1, 1]
00000000: fa7e 6a3e 4260 653e 6666 663e
0.229 0.224 0.225

observation.state.max f4 [6]
00000000: 9719 f941 8221 4042 9b24 c642 d7cb 9542
00000010: 0991 9040 556b a242
31.137495 48.032722 99.071495 74.898125 4.5177045 81.20963

observation.state.mean f4 [6]
00000000: 2777 2240 767f 92c1 ec16 3a42 4726 3741
00000010: c37b 04c2 02e9 0442
2.5385225 -18.312237 46.522385 11.446845 -33.12086 33.227547

observation.state.min f4 [6]
00000000: bc76 c7c1 99db c2c2 2376 8bc2 0de9 81c2
00000010: cedf 6cc2 2e82 3241
-24.932976 -97.4289 -69.730736 -64.95518 -59.21856 11.156782

observation.state.q01 f4 [6]
00000000: 006f 1dc1 e20d bfc2 4b10 80c1 45eb 24c2
00000010: c22c 57c2 751a 4041
-9.8396 -95.527115 -16.007956 -41.229755 -53.79371 12.006459

observation.state.q10 f4 [6]
00000000: cbbd 0bc1 d5d6 bdc2 e51b 0ac1 5ce0 23c2
00000010: 373c 55c2 c8be 4141
-8.733836 -94.91959 -8.63181 -40.9691 -53.308804 12.109077

observation.state.q50 f4 [6]
00000000: a474 0cc0 6e0a a340 acac 2c42 4ede ab41
00000010: e119 3ac2 5eca 0542
-2.1946192 5.095023 43.168625 21.483547 -46.525272 33.447624

observation.state.q90 f4 [6]
00000000: 27d1 c341 7f82 c041 ed8b c242 34ff 6542
00000010: 8de5 0bc0 44ce 6542
24.477125 24.063719 97.27329 57.49922 -2.1858857 57.45143

observation.state.q99 f4 [6]
00000000: b0ea d241 7bfe ec41 8f32 c342 859d 6f42
00000010: 0299 aebf 8ea0 8142
26.364594 29.624258 97.59875 59.903828 -1.3640444 64.81358

observation.state.std f4 [6]
00000000: 2b4a 4741 f24c 3d42 1e68 1f42 73e1 0f42
00000010: ab05 b441 8173 9a41
12.455607 47.32514 39.851677 35.970165 22.502768 19.306398
